tf_lite_model.tflite (tflite, 26320 bytes, 7 tensors)

arith.constant f4 [1, 15]
-0.8450708 0.6892227 0.68696 0.28399697 0.92331564 0.5765412 0.6618397 0.7490809
-0.48619124 -0.8376941 0.5771074 0.47664136 -0.7853182 -0.6205799 0.93949395
00000000: 8f56 58bf e670 303f 9cdc 2f3f 0d68 913e
00000010: 6a5e 6c3f 3498 133f 546e 293f c4c3 3f3f
00000020: 0fee f8be 1f73 56bf 50bd 133f 560a f43e
00000030: 9d0a 49bf 53de 1ebf ad82 703f

arith.constant1 f4 [15, 30]
0.430116 -0.1202384 -0.22669785 0.050154492 0.15188338 -0.19473708 -0.0937672 -0.019731484
0.3275187 -0.41062275 0.49541178 0.42933506 0.28731155 -0.36499152 -0.1810321 0.27610898
-0.33258677 0.41281223 -0.17799163 -0.3278116 0.32787156 -0.21949692 0.09196661 0.4663328
0.25865695 0.3112058 0.49293172 0.38578042 0.20346971 -0.16756725 -0.2287033 -0.13029763
-0.036472943 0.1240972 0.055551376 -0.39825493 -0.15690331 -0.23678033 0.15288542 0.5373279
-0.13060305 -0.32617164 -0.09273432 -0.066217765 -0.18550275 -0.14319928 0.14659058 -0.10116222
-0.21160252 0.50176555 -0.058532998 0.29188862 0.022128174 -0.25797257 -0.31214124 -0.30225933
-0.26673064 -0.183864 0.02405014 0.18795513 0.2395694 0.09890101 0.25677273 0.37062755
0.08974402 0.21127391 0.24187192 -0.2505006 -0.43270117 0.6192552 -0.11742308 -0.0017291575
-0.09649655 0.30263036 -0.3827955 -0.029740067 0.17031536 -0.036895264 0.28482842 0.39233643
-0.048156954 0.35837027 -0.31707138 -0.29203993 0.028241074 -0.18327793 -0.09344837 -0.19990636
-0.23789494 0.2724686 -0.40737262 0.06370986 -0.10860047 0.22831506 0.32158047 -0.16943716
-0.05102145 -0.20791993 -0.09587848 0.20818257 -0.09994156 -0.32945627 0.03729493 -0.10357237
0.13847707 -0.12023115 0.6369475 -0.05961798 0.37563238 -0.09936409 -0.40243998 0.07675003
-0.30175653 0.13743642 0.0034515553 -0.1824343 -0.39517447 -0.41487888 -0.020620257 0.2871539
-0.08730866 0.3760077 0.30115426 0.45088068 0.20592166 0.06755326 -0.14016616 -0.38476044
-0.44528353 0.4588103 -0.2835925 -0.250987 0.037174955 0.12181157 -0.093882866 -0.27023828
0.58211994 -0.2069541 0.14401488 0.55859965 -0.19841015 0.23852837 -0.3297652 -0.3672424
0.028092666 -0.0029700748 -0.30593985 0.12553501 0.09571906 -0.14437588 -0.27436295 0.0124836555
0.51128405 0.645787 0.047919445 0.27427527 0.4364478 -0.39123935 -0.23906757 0.48992613
-0.09265974 -0.08307554 -0.06950804 0.35505673 -0.2597625 -0.13202496 0.6213676 0.1545017
0.7144628 0.12038809 0.04045101 0.45137832 -0.21163015 -0.06966643 0.17122933 -0.17995912
-0.3156196 -0.13563518 -0.15242882 -0.13602385 0.059811175 0.06054539 0.16094293 0.69145185
0.16770336 -0.041390546 0.035092387 0.10769085 -0.41016588 -0.086325385 -0.037301406 -0.1304802
-0.09701738 0.022668319 0.07004273 0.017599143 0.55329317 -0.021990972 0.64919966 -0.037476536
-0.09004026 0.24686971 -0.062676735 -0.07542268 -0.15492268 -0.040354878 -0.23341659 -0.16006695
-0.15279543 -0.28093725 -0.3287565 -0.17921521 0.35632798 0.06037339 0.20361099 0.13958642
0.30058917 -0.013176235 -0.3130374 0.6235209 -0.039017227 -0.28581524 0.12621541 0.09931683
0.055668242 -0.2379886 0.13746156 -0.31381086 0.14750382 0.209612 -0.25897357 0.43909162
-0.18060958 -0.3371129 -0.1039987 0.09323115 -0.013211034 0.03664079 0.0038650422 -0.20182909
0.5406153 -0.033981677 -0.3089617 -0.42871028 0.031279452 0.009385266 0.2819903 0.6090267
-0.036263395 -0.30370328 0.6935017 0.14556298 0.07042459 -0.30462375 -0.2566441 0.7281036
00000000: 2a38 dc3e 8d3f f6bd 7b23 68be cc6e 4d3d
00000010: 5187 1b3e 2869 47be 0509 c0bd eca3 a1bc
00000020: 88b0 a73e 253d d2be 9da6 fd3e ced1 db3e
00000030: 801a 933e 2be0 babe 7b60 39be 285e 8d3e
00000040: d048 aabe 205c d33e 7043 36be ecd6 a7be
00000050: c8de a73e cdc3 60be fd58 bc3d 2cc3 ee3e
00000060: af6e 843e 5e56 9f3e 8c61 fc3e 0385 c53e
00000070: 5d5a 503e c096 2bbe 3331 6abe be6c 05be
00000080: a764 15bd ac26 fe3d d789 633d 12e8 cbbe
00000090: 43ab 20be 8b76 72be ff8d 1c3e 528e 093f
000000a0: cebc 05be f8ff a6be 7eeb bdbd 2e9d 87bd
000000b0: 6ff4 3dbe d5a2 12be d71b 163e 232e cfbd
000000c0: 55ae 58be b573 003f 4cc0 6fbd 6d72 953e
000000d0: 2546 b53c fb14 84be fad0 9fbe bcc1 9abe
000000e0: eb90 88be d846 3cbe cd04 c53c 4f77 403e
000000f0: ae51 753e 9d8c ca3d b777 833e e5c2 bd3e
00000100: b6cb b73d 3058 583e 46ad 773e 9d41 80be
00000110: 028b ddbe 8287 1e3f 837b f0bd e6a4 e2ba
00000120: fc9f c5bd 5ef2 9a3e c6fd c3be 71a1 f3bc
00000130: 2667 2e3e 7d1f 17bd 08d5 913e 52e0 c83e
00000140: 3a40 45bd 4f7c b73e 2e57 a2be 4286 95be
00000150: d359 e73c 36ad 3bbe dc61 bfbd 41b4 4cbe
00000160: bb9a 73be 0181 8b3e 2593 d0be 517a 823d
00000170: ec69 debd 6ccb 693e 32a6 a43e ef80 2dbe
00000180: defb 50bd f6e8 54be f05b c4bd d02d 553e
00000190: 29ae ccbd 7eae a8be 92c2 183d c01d d4bd
000001a0: efcc 0d3e c03b f6bd fe0e 233f fc31 74bd
000001b0: e352 c03e 667f cbbd 9d0c cebe 1f2f 9d3d
000001c0: d57f 9abe 22bc 0c3e 7d33 623b 0fd0 3abe
000001d0: 4f54 cabe 016b d4be d0eb a8bc d605 933e
000001e0: e2ce b2bd 1584 c03e e430 9a3e d5d9 e63e
000001f0: 21dd 523e 5d59 8a3d b887 0fbe 52ff c4be
00000200: 34fc e3be 2fe9 ea3e 0933 91be 5e81 80be
00000210: c444 183d 5878 f93d a945 c0bd ac5c 8abe
00000220: d005 153f c7eb 53be a378 133e 6300 0f3f
00000230: 082c 4bbe c840 743e fcd6 a8be 3207 bcbe
00000240: 9722 e63c 96a5 42bb 26a4 9cbe 408c 003e
00000250: 5b08 c43d 45d7 13be 4d79 8cbe 3f88 4c3c
00000260: 83e3 023f 4c52 253f 2e47 443d cf6d 8c3e
00000270: 1676 df3e 8650 c8be 21ce 74be 99d7 fa3e
00000280: 64c4 bdbd 8223 aabd 3b5a 8ebd ffc9 b53e
00000290: 97ff 84be 8d31 07be f211 1f3f b235 1e3e
000002a0: 09e7 363f 088e f63d f5af 253d 0f1b e73e
000002b0: 93b5 58be 46ad 8ebd be56 2f3e 3447 38be
000002c0: e498 a1be f3e3 0abe 4d16 1cbe d649 0bbe
000002d0: 90fc 743d 71fe 773d 39ce 243e fd02 313f
000002e0: 6eba 2b3e 2289 29bd 09bd 0f3d 058d dc3d
000002f0: 4301 d2be 5dcb b0bd 5cc9 18bd 9a9c 05be
00000300: 0cb1 c6bd e9b2 b93c 9072 8f3d 142c 903c
00000310: 9fa4 0d3f 6926 b4bc f331 263f ff80 19bd
00000320: 0767 b8bd 6acb 7c3e a95c 80bd 3577 9abd
00000330: 0da4 1ebe 284b 25bd c204 6fbe 97e8 23be
00000340: 6876 1cbe 02d7 8fbe c652 a8be 3184 37be
00000350: 9f70 b63e 164a 773d 667f 503e beef 0e3e
00000360: d3e6 993e 23e1 57bc 7046 a0be 119f 1f3f
00000370: 87d0 1fbd 6056 92be 9d3e 013e 9f66 cb3d
00000380: 6204 643d 49b3 73be b9c2 0c3e d1ab a0be
00000390: 3e0b 173e 87a4 563e 2f98 84be 9ed0 e03e
000003a0: b8f1 38be 109a acbe 45fd d4bd f9ef be3d
000003b0: 1873 58bc a714 163d a64c 7d3b 49ac 4ebe
000003c0: c465 0a3f 5f30 0bbd 3a30 9ebe ea7f dbbe
000003d0: e21e 003d a9c4 193c 0861 903e 2ce9 1b3f
000003e0: ed88 14bd ff7e 9bbe 5489 313f 760e 153e
000003f0: c43a 903d a5f7 9bbe db66 83be ff64 3a3f

arith.constant2 f4 [30, 60]
-0.22603321 0.12316173 -0.23177938 -0.28399575 0.035382655 -0.014367676 0.322689 -0.23664573
-0.0040382124 0.13972849 -0.24143827 0.21891676 0.016526988 -0.2406211 -0.03260617 0.11976139
-0.13770728 -0.18148252 -0.10380581 -0.24031644 0.082256906 0.07248384 -0.20617935 0.07432651
0.25528803 0.19070926 -0.0008882086 -0.33529955 -0.16948861 0.13728614 0.025070544 -0.10596483
-0.109376386 0.17394768 0.14164612 0.107797824 0.054568473 0.2580175 -0.1776641 0.38127777
0.025747642 0.024116337 -0.16526014 0.0617435 0.06429142 -0.23651932 0.11590442 -0.14405909
-0.13834119 0.088841625 0.006289395 -0.16397782 0.09404253 0.016719889 0.6023644 0.24424648
0.13330339 0.29950553 -0.00849294 0.15063609 0.038892798 0.26412377 0.19773838 -0.11361544
0.10617741 -0.074432895 -0.08393969 0.15679061 -0.14847939 -0.19976467 0.02469474 -0.027771803
-0.13194108 0.27698728 0.04858163 0.16540149 0.078419365 -0.09783486 0.24388275 0.027735025
-0.084014475 0.3085886 0.17334022 0.18435161 0.07516718 -0.20382673 0.15828474 0.07840741
0.25130525 0.05856823 -0.1618905 0.27514657 0.22395682 -0.09185532 -0.19473036 -0.08222792
0.051081855 -0.10159004 -0.13119844 -0.15989187 -0.039980616 0.17385474 -0.07488137 -0.23764506
-0.094151355 0.15716967 0.009699663 0.22807688 0.1845468 -0.022858882 0.02749658 -0.08791803
-0.1781772 0.20609218 -0.08957402 -0.23293547 -0.30944416 -0.2522318 -0.1278761 0.21455625
-0.058244508 -0.016687535 -0.01872113 0.7153818 -0.22014269 0.09260034 0.06732438 0.13592339
0.24633557 -0.092369646 0.010527343 -0.12382213 -0.07814036 0.5289365 0.17692366 -0.1361164
-0.07348089 0.13920267 -0.16785467 0.027915657 0.08607957 0.22472538 -0.036738597 -0.137979
0.21783803 -0.2134543 0.19421437 0.23895542 -0.053965647 -0.038871557 0.15375088 0.57513124
-0.20514062 0.070909955 -0.25322825 -0.24583119 0.046578545 -0.027653638 0.23234549 -0.22269258
-0.13888462 0.22567269 0.47309953 0.007000731 0.122167595 0.19019598 -0.21338259 -0.019067474
0.14810155 0.17406745 0.5061851 0.368838 0.008267316 0.23067653 -0.22852513 -0.03911446
0.10097777 -0.1280937 0.20720728 -0.2408501 0.16663696 0.052189875 0.26308843 0.44950923
-0.072631225 -0.22777034 -0.118911326 0.3092168 0.24846432 0.20158431 -0.24147812 -0.27152926
0.12878525 0.3963768 -0.10756393 -0.2164384 -0.071428224 -0.0906341 -0.01077646 0.099057764
-0.15479144 0.20503956 -0.21485268 0.023050714 0.10714946 0.025461644 0.2287052 0.23486844
-0.0028116596 -0.30839017 0.13020533 0.24185356 -0.16106491 0.14432992 -0.18951578 -0.08519044
-0.10057915 -0.1939087 0.19411209 -0.3289657 -0.31239715 -0.21246898 0.46771324 -0.19589163
-0.11380313 -0.0025658011 -0.037862044 0.2411796 -0.18993777 0.22931886 0.28583395 0.39014515
-0.063889354 -0.15036659 -0.33726633 0.061617136 -0.1193667 -0.117363214 0.18310288 -0.17207085
0.17109485 0.24646148 0.25877655 0.1467657 0.2858579 0.13513555 0.009011866 0.3684837
-0.0034750537 0.20796141 -0.21577762 0.2130833 -0.059748657 -0.11387313 -0.059355393 -0.057452597
00000000: 4075 67be 383c fc3d 9357 6dbe e467 91be
00000010: 67ed 103d 6766 6bbc 7e37 a53e 4253 72be
00000020: fb52 84bb fc14 0f3e 983b 77be b72b 603e
00000030: 9b63 873c 6165 76be 0c8e 05bd 7645 f53d
00000040: 2303 0dbe 8ed6 39be 2498 d4bd 8315 76be
00000050: 4f76 a83d 6872 943d ae20 53be 7f38 983d
00000060: 1db5 823e 4a49 433e acd6 68ba 62ac abbe
00000070: 6c8e 2dbe bd94 0c3e be60 cd3c 1704 d9bd
00000080: ba00 e0bd 571f 323e ae0b 113e 1bc5 dc3d
00000090: 3183 5f3d df1a 843e 94ed 35be d736 c33e
000000a0: b8ec d23c a08f c53c f439 29be c1e6 7c3d
000000b0: 38ab 833d 1f32 72be 4c5f ed3d 3a84 13be
000000c0: 50a9 0dbe 99f2 b53d 4517 ce3b cde9 27be
000000d0: 5f99 c03d 26f8 883c 8e34 1a3f c01b 7a3e
000000e0: af80 083e ca58 993e f925 0bbc 5940 1a3e
000000f0: 0e4e 1f3d 3b3b 873e ee7b 4a3e 36af e8bd
00000100: 8b73 d93d 4670 98bd 92e8 abbd b88d 203e
00000110: fb0a 18be 1c8f 4cbe a04c ca3c b181 e3bc
00000120: 901b 07be 47d1 8d3e 88fd 463d 025f 293e
00000130: 559a a03d a55d c8bd 66bc 793e 9034 e33c
00000140: c80f acbd 53ff 9d3e 1980 313e abc6 3c3e
00000150: 40f1 993d f4b7 50be 6515 223e 1094 a03d
00000160: 15ab 803e 3ee5 6f3d a0c6 25be 03e0 8c3e
00000170: f054 653e a41e bcbd 6567 47be 1d67 a8bd
00000180: 353b 513d 700e d0bd e258 06be b2ba 23be
00000190: b7c2 23bd fa06 323e 675b 99bd 3a59 73be
000001a0: 6dd2 c0bd 16f1 203e 56eb 1e3c fc8c 693e
000001b0: d6f9 3c3e 8d42 bbbc 8240 e13c 5e0e b4bd
000001c0: 1574 36be d409 533e 9572 b7bd a386 6ebe
000001d0: 776f 9ebe 8724 81be f4f1 02be a2b4 5b3e
000001e0: cb91 6ebd 4cb4 88bc 0e5d 99bc 4323 373f
000001f0: 166d 61be 3fa5 bd3d 5de1 893d 802f 0b3e
00000200: 643f 7c3e 4c2c bdbd e07a 2c3c 7596 fdbd
00000210: 0e08 a0bd 6268 073f 7a2b 353e 1962 0bbe
00000220: 267d 96bd 258b 0e3e 18e2 2bbe 60af e43c
00000230: 7c4a b03d 691e 663e 367b 16bd 5e4a 0dbe
00000240: ef10 5f3e c493 5abe 22e0 463e bbb0 743e
00000250: 150b 5dbd c837 1fbd df70 1d3e cd3b 133f
00000260: 6210 52be 3d39 913d 22a7 81be 2cbb 7bbe
00000270: 25c9 3e3d e289 e2bc faeb 6d3e 8609 64be
00000280: c537 0ebe be16 673e 1a3a f23e 6366 e53b
00000290: 0133 fa3d bcc2 423e f780 5abe 6433 9cbc
000002a0: efa7 173e bd3e 323e 5995 013f 56d8 bc3e
000002b0: a373 073c 7836 6c3e 7e02 6abe 7c36 20bd
000002c0: 6fcd ce3d ff2a 03be 252e 543e 69a1 76be
000002d0: e1a2 2a3e 0dc5 553d 87b3 863e 1326 e63e
000002e0: aebf 94bd a13c 69be c887 f3bd aa51 9e3e
000002f0: 6e6d 7e3e 1e6c 4e3e 0a46 77be e205 8bbe
00000300: 48e0 033e e6f1 ca3e 7a4a dcbd 07a2 5dbe
00000310: f648 92bd 5f9e b9bd c08f 30bc ccde ca3d
00000320: a681 1ebe e4f5 513e 5702 5cbe dad4 bc3c
00000330: 2d71 db3d f094 d03c b231 6a3e 5a81 703e
00000340: d243 38bb 51e5 9dbe 8c54 053e 76a8 773e
00000350: 33ee 24be 39cb 133e 6d10 42be 5378 aebd
00000360: 71fc cdbd 0190 46be 52c5 463e 316e a8be
00000370: 85f2 9fbe 7891 59be 1c78 ef3e d197 48be
00000380: 9e11 e9bd 0027 28bb 3b15 1bbd c9f7 763e
00000390: 0c7f 42be 90d2 6a3e d458 923e 1bc1 c73e
000003a0: 6cd8 82bd b3f9 19be 2cae acbe 4062 7c3d
000003b0: 8776 f4bd 205c f0bd 527f 3b3e 5733 30be
000003c0: 7d33 2f3e 6660 7c3e 5c7e 843e bf49 163e
000003d0: f75b 923e f960 0a3e 81a6 133c e5a9 bc3e
000003e0: babd 63bb d6f3 543e cff4 5cbe 8232 5a3e
000003f0: 02bb 74bd 5136 e9bd a41e 73bd 6a53 6bbd

arith.constant4 f4 [15]
0.14177859 0.17823443 0.21031454 0.11677002 0.2281724 0.17803714 0.098945536 0.1345152
0.26000372 0.0842289 0.24179462 0.0983212 0.11147469 0.12718298 0.17471002
00000000: 682e 113e 1683 363e b25c 573e 1f25 ef3d
00000010: 07a6 693e 5e4f 363e f5a3 ca3d 5abe 093e
00000020: 351f 853e 3480 ac3d 0299 773e a05c c93d
00000030: d84c e43d 413c 023e 2fe7 323e

arith.constant5 f4 [30]
-0.01970325 0.028271113 0.030143697 0.087955415 0.053137224 -0.07873091 -0.061676063 -0.0032368652
0.0013198582 0.03726014 0.025688179 0.084221356 0.06502347 -0.015677009 -0.049686246 -0.0150824385
0.07612656 0.021668347 0.0833902 0.018279321 0.0017158242 0.032568846 0.0064770025 0.0008465857
-0.047412127 0.00053485204 -0.039520543 0.00581362 0.039304502 -0.05392809
00000000: b668 a1bc d298 e73c eaef f63c f821 b43d
00000010: 6ba6 593d ac3d a1bd 0aa0 7cbd 9621 54bb
00000020: 18ff ac3a 179e 183d 0470 d23c 3f7c ac3d
00000030: 062b 853d 126d 80bc ce83 4bbd 551c 77bc
00000040: 3ee8 9b3d d181 b13c 7bc8 aa3d 84be 953c
00000050: 82e5 e03a e966 053d 093d d43b 68ed 5d3a
00000060: 3833 42bd 5035 0c3a 4be0 21bd 2e80 be3b
00000070: c2fd 203d b3e3 5cbd

sequential_1_1/dense_4_1/BiasAdd/ReadVariableOp f4 [60]
0.091129445 -0.089625545 0.0871079 0.12652336 -0.15696864 -0.018233787 -0.13018927 0.033948418
0.015553653 0.0 -0.0061660367 0.025646314 -0.02691049 0.12090602 0.0 -0.08474755
-0.020586934 -0.12926383 -0.0053647575 0.0 -0.14520228 6.488603e-05 -0.011030222 -0.014685461
-0.047566015 0.0 0.03771473 -0.042847194 -0.012593387 -0.021701286 -0.011022359 0.098939806
-0.01760047 -0.09976348 -0.08132612 -0.1504253 -0.02293764 -0.14728002 -0.020589944 -0.0022180062
0.032419704 0.0 0.011974173 -0.06417176 -0.11752218 0.0 -0.11694405 0.04643961
-0.0055480343 0.017058043 0.10455402 0.10205575 -0.0060602645 -0.02471228 -0.026629385 -0.132522
-0.0391705 -0.12921101 0.07925874 -0.0060878135
00000000: 13a2 ba3d 998d b7bd a065 b23d 578f 013e
00000010: 63bc 20be 065f 95bc 5650 05be 7f0d 0b3d
00000020: c0d4 7e3c 0000 0000 770c cabb 3818 d23c
00000030: 6373 dcbc 939d f73d 0000 0000 2090 adbd
00000040: eea5 a8bc bd5d 04be d9ca afbb 0000 0000
00000050: e8af 14be 6c13 8838 1bb8 34bc 4a9b 70bc
00000060: 95d4 42bd 0000 0000 c37a 1a3d 8a80 2fbd
00000070: 7e54 4ebc e5c6 b1bc 2097 34bc f4a0 ca3d
00000080: dc2e 90bc cc50 ccbd 4f8e a6bd 1709 1abe
00000090: b8e7 bbbc 93d0 16be 3eac a8bc f85b 11bb
000000a0: 86ca 043d 0000 0000 522f 443c 7c6c 83bd
000000b0: 78af f0bd 0000 0000 5d80 efbd 7637 3e3d
000000c0: 49cc b5bb 4fbd 8b3c 6b20 d63d 9b02 d13d
000000d0: 2f95 c6bb 6871 cabc de25 dabc d9b3 07be
000000e0: 3f71 20bd e44f 04be 6852 a23d 487c c7bb

sequential_1_1/dense_4_1/MatMul f4 [60, 60]
0.13664997 -0.11834723 0.038151804 -0.30809453 -0.14912409 0.18478322 -0.050694954 -0.0032330768
-0.13605118 -0.069182605 -0.037815 -0.24680592 -0.1569047 -0.072427124 0.24244943 -0.22122288
-0.32360935 -0.26395965 0.07917124 0.08335674 0.13621432 -0.11133645 0.19967227 0.022849834
-0.13410665 0.076953836 0.06469616 0.051525485 -0.14992194 0.011897887 0.10513403 -0.02570988
0.09083084 -0.12854508 0.10706731 0.12722899 -0.11889079 -0.12733053 0.16840489 -0.06532026
-0.16797468 0.12603948 0.18790494 0.12867269 -0.17014161 -0.10640945 0.0058925357 -0.117218874
0.03286974 0.14346904 0.16343911 0.04359729 0.21769398 0.050902918 0.11969746 0.05240609
-0.024857808 0.11195046 -0.11714337 0.09496426 0.3124743 0.16132574 -0.21025284 0.2902924
-0.13519464 -0.23140933 -0.018182306 -0.057974473 0.10313478 0.115930304 0.058120187 0.21692838
0.021789981 -0.11582806 -0.061917778 0.076206915 0.076181866 0.15165405 -0.08760597 -0.20821057
0.10877977 0.14152299 -0.1351438 0.048808575 0.00066891935 -0.12584871 0.05769024 0.075121626
-0.02010421 0.09749936 -0.028065894 0.051641848 -0.023527456 0.064211845 0.15206811 -0.11929402
0.03242759 -0.08782738 -0.07941408 -0.049225945 0.17504649 -0.2552342 0.2079398 -0.1653468
0.19568464 0.2126194 -0.1305843 -0.1085213 0.13527128 -0.23176728 -0.019483343 -0.04327078
0.2524878 0.1153082 -0.1340538 0.2032891 0.13664958 0.30003053 0.23255856 0.38882044
-0.031985536 0.078552656 -0.14535013 -0.25381476 0.01913274 0.1699078 0.087942556 0.31596267
-0.35310775 -0.29154333 -0.16048123 -0.35426027 -0.10498672 0.010553083 0.029227778 -0.16513318
-0.20678288 -0.057169788 -0.1036659 0.036398266 0.034700874 -0.07138552 0.12884355 0.08688677
0.024560414 -0.10160613 0.11825032 -0.103501186 -0.08120803 0.10675343 0.26480022 -0.054985974
0.18769951 0.031521916 -0.023025943 0.08707433 -0.0115273595 0.15516718 -0.1618141 0.100940034
-0.18513234 0.03164145 -0.15122768 0.037277233 0.028893044 -0.18805574 0.04542278 -0.21497698
-0.3847305 0.42391938 0.060868733 -0.08313311 -0.07140033 0.25174803 0.13746484 -0.033192508
-0.12309238 0.3350988 -0.11478988 0.10944763 0.02579783 -0.06751969 -0.07732297 -0.0022237925
-0.12577759 0.02697946 0.010245087 -0.10052828 -0.4456526 -0.3944579 -0.31602088 -0.2296436
0.04648414 0.026391596 -0.024460537 0.15127681 -0.30149907 0.12347358 -0.12482229 0.2515684
0.12072451 -0.18459873 -0.22588664 -0.023819808 0.048547316 0.2620193 -0.09150807 0.26412246
-0.16970044 0.07786614 0.10492494 0.23876263 0.024533357 -0.17740308 0.140099 0.22593655
-0.099906534 -0.21869187 -0.23005207 -0.108213566 0.021904323 -0.0823469 0.048811164 0.17728657
-0.22503136 -0.11321737 -0.31723425 -0.3214279 -0.1642221 0.43745923 -0.21793252 -0.45346668
0.07400205 0.031833384 0.044583444 0.07915019 0.27662 0.04167606 -0.19189927 -0.019322295
0.16692209 0.27804244 -0.002820958 0.19956683 0.098873176 -0.058387153 -0.22829627 -0.40206832
0.08227175 -0.17133106 0.29850018 0.25048038 -0.13404803 -0.033990216 -0.073619634 -0.009826661
00000000: f8ed 0b3e 0860 f2bd 1145 1c3d 91be 9dbe
00000010: fcb3 18be d037 3d3e 83a5 4fbd 07e2 53bb
00000020: 0051 0bbe 9caf 8dbd e7e3 1abd b1ba 7cbe
00000030: a0ab 20be ac54 94bd aa44 783e 4088 62be
00000040: 20b0 a5be b825 87be 8824 a23d f0b6 aa3d
00000050: c47b 0b3e 5d04 e4bd e376 4c3e 932f bb3c
00000060: 4153 09be f999 9d3d 6c7f 843d 630c 533d
00000070: 2385 19be 5bef 423c 8350 d73d 879d d2bc
00000080: 8505 ba3d 52a1 03be 1b46 db3d 5148 023e
00000090: 047d f3bd ef62 02be 5572 2c3e a1c6 85bd
000000a0: 8e01 2cbe 7e10 013e 276a 403e c6c2 033e
000000b0: 9a39 2ebe 33ed d9bd 2c16 c13b 7310 f0bd
000000c0: 6ca2 063d 8ce9 123e 955c 273e 1293 323d
000000d0: 2ceb 5e3e 947f 503d f123 f53d c5a7 563d
000000e0: 9aa2 cbbc 4846 e53d dde8 efbd 9f7c c23d
000000f0: a2fc 9f3e 9332 253e 854c 57be 35a1 943e
00000100: 7770 0abe 91f6 6cbe 0ff3 94bc a476 6dbd
00000110: 5438 d33d de6c ed3d 6f0f 6e3d 7922 5e3e
00000120: e780 b23c 4337 edbd 7f9d 7dbd 5f12 9c3d
00000130: 3d05 9c3d 334b 1b3e c26a b3bd 2735 55be
00000140: eec7 de3d 67eb 103e 2363 0abe 80eb 473d
00000150: 6b5a 2f3a 7cde 00be 9a4c 6c3d 5ed9 993d
00000160: 96b1 a4bc bfad c73d 72ea e5bc 6786 533d
00000170: a7bc c0bc 8081 833d beb7 1b3e 6c50 f4bd
00000180: cbd2 043d d7de b3bd d9a3 a2bd 25a1 49bd
00000190: 633f 333e 0fae 82be 2cee 543e ac50 29be
000001a0: 8e61 483e e6b8 593e e4b7 05be 6a40 debd
000001b0: 8e84 0a3e 6754 6dbe 889b 9fbc b43c 31bd
000001c0: 1546 813e b526 ec3d 6645 09be 052b 503e
000001d0: deed 0b3e 9a9d 993e d523 6e3e 7913 c73e
000001e0: 4403 03bd 37e0 a03d aad6 14be 02f4 81be
000001f0: 44bc 9c3c 4ffc 2d3e 3a1b b43d dcc5 a13e
00000200: 8aca b4be 2b45 95be 3155 24be 9a61 b5be
00000210: 4703 d7bd d7e6 2c3c 186f ef3c ac18 29be
00000220: e4be 53be de2a 6abd ca4e d4bd 5916 153d
00000230: 8122 0e3d 9232 92bd 90ef 033e b1f1 b13d
00000240: ec32 c93c e016 d0bd 392d f23d 6ef8 d3bd
00000250: 6550 a6bd 8ba1 da3d e593 873e f938 61bd
00000260: 4d34 403e 201d 013d e7a0 bcbc 0754 b23d
00000270: 40dd 3cbc 25e4 1e3e 98b2 25be a6b9 ce3d
00000280: 5593 3dbe 779a 013d 6edb 1abe 03b0 183d
00000290: 1bb1 ec3c af91 40be 3d0d 3a3d ed22 5cbe
000002a0: 65fb c4be f60b d93e 7e51 793d b141 aabd
000002b0: 563a 92bd 1ee5 803e 95c3 0c3e def4 07bd
000002c0: dc17 fcbd 1292 ab3e f516 ebbd 1426 e03d
000002d0: f955 d33c c347 8abd 815b 9ebd 0cbd 11bb
000002e0: d7cb 00be 0704 dd3c 02db 273c c5e1 cdbd
000002f0: 942c e4be 63f6 c9be 7dcd a1be b127 6bbe
00000300: 2766 3e3d 3033 d83c 7761 c8bc 4fe8 1a3e
00000310: 165e 9abe b7df fc3d d4a2 ffbd 93cd 803e
00000320: 693e f73d 7307 3dbe d44e 67be c221 c3bc
00000330: 8dd9 463d 6527 863e 9568 bbbd 0f3b 873e
00000340: f4c5 2dbe 4878 9f3d e3e2 d63d 317e 743e
00000350: 2efa c83c 27a9 35be 1d76 0f3e e95b 673e
00000360: cc9b ccbd c3f0 5fbe c592 6bbe 139f ddbd
00000370: b270 b33c 7ea5 a8bd 37ee 473d 9c8a 353e
00000380: 9f6e 66be 82de e7bd 876c a2be 3392 a4be
00000390: d729 28be a8fa df3e b429 5fbe c92c e8be
000003a0: 638e 973d b963 023d 219d 363d 7f19 a23d
000003b0: 23a1 8d3e 84b4 2a3d 3e81 44be ca49 9ebc
000003c0: a0ed 2a3e 945b 8e3e d2df 38bb 3f5b 4c3e
000003d0: 057e ca3d 5e27 6fbd 7fc6 69be e6db cdbe
000003e0: 177e a83d 6971 2fbe 04d5 983e f73e 803e
000003f0: e343 09be 5339 0bbd e4c5 96bd 0100 21bc
