tf_quant_model.tflite (tflite, 10224 bytes, 7 tensors)

arith.constant f4 [60]
0	0x3dbaa213	0.091129445
1	0xbdb78d99	-0.089625545
2	0x3db265a0	0.0871079
3	0x3e018f57	0.12652336
4	0xbe20bc63	-0.15696864
5	0xbc955f06	-0.018233787
6	0xbe055056	-0.13018927
7	0x3d0b0d7f	0.033948418
8	0x3c7ed4c0	0.015553653
9	0x00000000	0.0
10	0xbbca0c77	-0.0061660367
11	0x3cd21838	0.025646314
12	0xbcdc7363	-0.02691049
13	0x3df79d93	0.12090602
14	0x00000000	0.0
15	0xbdad9020	-0.08474755
16	0xbca8a5ee	-0.020586934
17	0xbe045dbd	-0.12926383
18	0xbbafcad9	-0.0053647575
19	0x00000000	0.0
20	0xbe14afe8	-0.14520228
21	0x3888136c	6.488603e-05
22	0xbc34b81b	-0.011030222
23	0xbc709b4a	-0.014685461
24	0xbd42d495	-0.047566015
25	0x00000000	0.0
26	0x3d1a7ac3	0.03771473
27	0xbd2f808a	-0.042847194
28	0xbc4e547e	-0.012593387
29	0xbcb1c6e5	-0.021701286
30	0xbc349720	-0.011022359
31	0x3dcaa0f4	0.098939806
32	0xbc902edc	-0.01760047
33	0xbdcc50cc	-0.09976348
34	0xbda68e4f	-0.08132612
35	0xbe1a0917	-0.1504253
36	0xbcbbe7b8	-0.02293764
37	0xbe16d093	-0.14728002
38	0xbca8ac3e	-0.020589944
39	0xbb115bf8	-0.0022180062
40	0x3d04ca86	0.032419704
41	0x00000000	0.0
42	0x3c442f52	0.011974173
43	0xbd836c7c	-0.06417176
44	0xbdf0af78	-0.11752218
45	0x00000000	0.0
46	0xbdef805d	-0.11694405
47	0x3d3e3776	0.04643961
48	0xbbb5cc49	-0.0055480343
49	0x3c8bbd4f	0.017058043
50	0x3dd6206b	0.10455402
51	0x3dd1029b	0.10205575
52	0xbbc6952f	-0.0060602645
53	0xbcca7168	-0.02471228
54	0xbcda25de	-0.026629385
55	0xbe07b3d9	-0.132522
56	0xbd20713f	-0.0391705
57	0xbe044fe4	-0.12921101
58	0x3da25268	0.07925874
59	0xbbc77c48	-0.0060878135

arith.constant1 f4 [30]
0	0xbca168b6	-0.01970325
1	0x3ce798d2	0.028271113
2	0x3cf6efea	0.030143697
3	0x3db421f8	0.087955415
4	0x3d59a66b	0.053137224
5	0xbda13dac	-0.07873091
6	0xbd7ca00a	-0.061676063
7	0xbb542196	-0.0032368652
8	0x3aacff18	0.0013198582
9	0x3d189e17	0.03726014
10	0x3cd27004	0.025688179
11	0x3dac7c3f	0.084221356
12	0x3d852b06	0.06502347
13	0xbc806d12	-0.015677009
14	0xbd4b83ce	-0.049686246
15	0xbc771c55	-0.0150824385
16	0x3d9be83e	0.07612656
17	0x3cb181d1	0.021668347
18	0x3daac87b	0.0833902
19	0x3c95be84	0.018279321
20	0x3ae0e582	0.0017158242
21	0x3d0566e9	0.032568846
22	0x3bd43d09	0.0064770025
23	0x3a5ded68	0.0008465857
24	0xbd423338	-0.047412127
25	0x3a0c3550	0.00053485204
26	0xbd21e04b	-0.039520543
27	0x3bbe802e	0.00581362
28	0x3d20fdc2	0.039304502
29	0xbd5ce3b3	-0.05392809

arith.constant2 f4 [15]
0	0x3e112e68	0.14177859
1	0x3e368316	0.17823443
2	0x3e575cb2	0.21031454
3	0x3def251f	0.11677002
4	0x3e69a607	0.2281724
5	0x3e364f5e	0.17803714
6	0x3dcaa3f5	0.098945536
7	0x3e09be5a	0.1345152
8	0x3e851f35	0.26000372
9	0x3dac8034	0.0842289
10	0x3e779902	0.24179462
11	0x3dc95ca0	0.0983212
12	0x3de44cd8	0.11147469
13	0x3e023c41	0.12718298
14	0x3e32e72f	0.17471002

arith.constant4 f4 [1, 15]
0	0xbf58568f	-0.8450708
1	0x3f3070e6	0.6892227
2	0x3f2fdc9c	0.68696
3	0x3e91680d	0.28399697
4	0x3f6c5e6a	0.92331564
5	0x3f139834	0.5765412
6	0x3f296e54	0.6618397
7	0x3f3fc3c4	0.7490809
8	0xbef8ee0f	-0.48619124
9	0xbf56731f	-0.8376941
10	0x3f13bd50	0.5771074
11	0x3ef40a56	0.47664136
12	0xbf490a9d	-0.7853182
13	0xbf1ede53	-0.6205799
14	0x3f7082ad	0.93949395

arith.constant5 f4 [15, 30]
0	0x3edc382a	0.430116
1	0xbdf63f8d	-0.1202384
2	0xbe68237b	-0.22669785
3	0x3d4d6ecc	0.050154492
4	0x3e1b8751	0.15188338
5	0xbe476928	-0.19473708
6	0xbdc00905	-0.0937672
7	0xbca1a3ec	-0.019731484
8	0x3ea7b088	0.3275187
9	0xbed23d25	-0.41062275
10	0x3efda69d	0.49541178
11	0x3edbd1ce	0.42933506
12	0x3e931a80	0.28731155
13	0xbebae02b	-0.36499152
14	0xbe39607b	-0.1810321
15	0x3e8d5e28	0.27610898
16	0xbeaa48d0	-0.33258677
17	0x3ed35c20	0.41281223
18	0xbe364370	-0.17799163
19	0xbea7d6ec	-0.3278116
20	0x3ea7dec8	0.32787156
21	0xbe60c3cd	-0.21949692
22	0x3dbc58fd	0.09196661
23	0x3eeec32c	0.4663328
24	0x3e846eaf	0.25865695
25	0x3e9f565e	0.3112058
26	0x3efc618c	0.49293172
27	0x3ec58503	0.38578042
28	0x3e505a5d	0.20346971
29	0xbe2b96c0	-0.16756725
30	0xbe6a3133	-0.2287033
31	0xbe056cbe	-0.13029763
32	0xbd1564a7	-0.036472943
33	0x3dfe26ac	0.1240972
34	0x3d6389d7	0.055551376
35	0xbecbe812	-0.39825493
36	0xbe20ab43	-0.15690331
37	0xbe72768b	-0.23678033
38	0x3e1c8dff	0.15288542
39	0x3f098e52	0.5373279
40	0xbe05bcce	-0.13060305
41	0xbea6fff8	-0.32617164
42	0xbdbdeb7e	-0.09273432
43	0xbd879d2e	-0.066217765
44	0xbe3df46f	-0.18550275
45	0xbe12a2d5	-0.14319928
46	0x3e161bd7	0.14659058
47	0xbdcf2e23	-0.10116222
48	0xbe58ae55	-0.21160252
49	0x3f0073b5	0.50176555
50	0xbd6fc04c	-0.058532998
51	0x3e95726d	0.29188862
52	0x3cb54625	0.022128174
53	0xbe8414fb	-0.25797257
54	0xbe9fd0fa	-0.31214124
55	0xbe9ac1bc	-0.30225933
56	0xbe8890eb	-0.26673064
57	0xbe3c46d8	-0.183864
58	0x3cc504cd	0.02405014
59	0x3e40774f	0.18795513
60	0x3e7551ae	0.2395694
61	0x3dca8c9d	0.09890101
62	0x3e8377b7	0.25677273
63	0x3ebdc2e5	0.37062755
64	0x3db7cbb6	0.08974402
65	0x3e585830	0.21127391
66	0x3e77ad46	0.24187192
67	0xbe80419d	-0.2505006
68	0xbedd8b02	-0.43270117
69	0x3f1e8782	0.6192552
70	0xbdf07b83	-0.11742308
71	0xbae2a4e6	-0.0017291575
72	0xbdc59ffc	-0.09649655
73	0x3e9af25e	0.30263036
74	0xbec3fdc6	-0.3827955
75	0xbcf3a171	-0.029740067
76	0x3e2e6726	0.17031536
77	0xbd171f7d	-0.036895264
78	0x3e91d508	0.28482842
79	0x3ec8e052	0.39233643
80	0xbd45403a	-0.048156954
81	0x3eb77c4f	0.35837027
82	0xbea2572e	-0.31707138
83	0xbe958642	-0.29203993
84	0x3ce759d3	0.028241074
85	0xbe3bad36	-0.18327793
86	0xbdbf61dc	-0.09344837
87	0xbe4cb441	-0.19990636
88	0xbe739abb	-0.23789494
89	0x3e8b8101	0.2724686
90	0xbed09325	-0.40737262
91	0x3d827a51	0.06370986
92	0xbdde69ec	-0.10860047
93	0x3e69cb6c	0.22831506
94	0x3ea4a632	0.32158047
95	0xbe2d80ef	-0.16943716
96	0xbd50fbde	-0.05102145
97	0xbe54e8f6	-0.20791993
98	0xbdc45bf0	-0.09587848
99	0x3e552dd0	0.20818257
100	0xbdccae29	-0.09994156
101	0xbea8ae7e	-0.32945627
102	0x3d18c292	0.03729493
103	0xbdd41dc0	-0.10357237
104	0x3e0dccef	0.13847707
105	0xbdf63bc0	-0.12023115
106	0x3f230efe	0.6369475
107	0xbd7431fc	-0.05961798
108	0x3ec052e3	0.37563238
109	0xbdcb7f66	-0.09936409
110	0xbece0c9d	-0.40243998
111	0x3d9d2f1f	0.07675003
112	0xbe9a7fd5	-0.30175653
113	0x3e0cbc22	0.13743642
114	0x3b62337d	0.0034515553
115	0xbe3ad00f	-0.1824343
116	0xbeca544f	-0.39517447
117	0xbed46b01	-0.41487888
118	0xbca8ebd0	-0.020620257
119	0x3e9305d6	0.2871539
120	0xbdb2cee2	-0.08730866
121	0x3ec08415	0.3760077
122	0x3e9a30e4	0.30115426
123	0x3ee6d9d5	0.45088068
124	0x3e52dd21	0.20592166
125	0x3d8a595d	0.06755326
126	0xbe0f87b8	-0.14016616
127	0xbec4ff52	-0.38476044
128	0xbee3fc34	-0.44528353
129	0x3eeae92f	0.4588103
130	0xbe913309	-0.2835925
131	0xbe80815e	-0.250987
132	0x3d1844c4	0.037174955
133	0x3df97858	0.12181157
134	0xbdc045a9	-0.093882866
135	0xbe8a5cac	-0.27023828
136	0x3f1505d0	0.58211994
137	0xbe53ebc7	-0.2069541
138	0x3e1378a3	0.14401488
139	0x3f0f0063	0.55859965
140	0xbe4b2c08	-0.19841015
141	0x3e7440c8	0.23852837
142	0xbea8d6fc	-0.3297652
143	0xbebc0732	-0.3672424
144	0x3ce62297	0.028092666
145	0xbb42a596	-0.0029700748
146	0xbe9ca426	-0.30593985
147	0x3e008c40	0.12553501
148	0x3dc4085b	0.09571906
149	0xbe13d745	-0.14437588
150	0xbe8c794d	-0.27436295
151	0x3c4c883f	0.0124836555
152	0x3f02e383	0.51128405
153	0x3f25524c	0.645787
154	0x3d44472e	0.047919445
155	0x3e8c6dcf	0.27427527
156	0x3edf7616	0.4364478
157	0xbec85086	-0.39123935
158	0xbe74ce21	-0.23906757
159	0x3efad799	0.48992613
160	0xbdbdc464	-0.09265974
161	0xbdaa2382	-0.08307554
162	0xbd8e5a3b	-0.06950804
163	0x3eb5c9ff	0.35505673
164	0xbe84ff97	-0.2597625
165	0xbe07318d	-0.13202496
166	0x3f1f11f2	0.6213676
167	0x3e1e35b2	0.1545017
168	0x3f36e709	0.7144628
169	0x3df68e08	0.12038809
170	0x3d25aff5	0.04045101
171	0x3ee71b0f	0.45137832
172	0xbe58b593	-0.21163015
173	0xbd8ead46	-0.06966643
174	0x3e2f56be	0.17122933
175	0xbe384734	-0.17995912
176	0xbea198e4	-0.3156196
177	0xbe0ae3f3	-0.13563518
178	0xbe1c164d	-0.15242882
179	0xbe0b49d6	-0.13602385
180	0x3d74fc90	0.059811175
181	0x3d77fe71	0.06054539
182	0x3e24ce39	0.16094293
183	0x3f3102fd	0.69145185
184	0x3e2bba6e	0.16770336
185	0xbd298922	-0.041390546
186	0x3d0fbd09	0.035092387
187	0x3ddc8d05	0.10769085
188	0xbed20143	-0.41016588
189	0xbdb0cb5d	-0.086325385
190	0xbd18c95c	-0.037301406
191	0xbe059c9a	-0.1304802
192	0xbdc6b10c	-0.09701738
193	0x3cb9b2e9	0.022668319
194	0x3d8f7290	0.07004273
195	0x3c902c14	0.017599143
196	0x3f0da49f	0.55329317
197	0xbcb42669	-0.021990972
198	0x3f2631f3	0.64919966
199	0xbd1980ff	-0.037476536
200	0xbdb86707	-0.09004026
201	0x3e7ccb6a	0.24686971
202	0xbd805ca9	-0.062676735
203	0xbd9a7735	-0.07542268
204	0xbe1ea40d	-0.15492268
205	0xbd254b28	-0.040354878
206	0xbe6f04c2	-0.23341659
207	0xbe23e897	-0.16006695
208	0xbe1c7668	-0.15279543
209	0xbe8fd702	-0.28093725
210	0xbea852c6	-0.3287565
211	0xbe378431	-0.17921521
212	0x3eb6709f	0.35632798
213	0x3d774a16	0.06037339
214	0x3e507f66	0.20361099
215	0x3e0eefbe	0.13958642
216	0x3e99e6d3	0.30058917
217	0xbc57e123	-0.013176235
218	0xbea04670	-0.3130374
219	0x3f1f9f11	0.6235209
220	0xbd1fd087	-0.039017227
221	0xbe925660	-0.28581524
222	0x3e013e9d	0.12621541
223	0x3dcb669f	0.09931683
224	0x3d640462	0.055668242
225	0xbe73b349	-0.2379886
226	0x3e0cc2b9	0.13746156
227	0xbea0abd1	-0.31381086
228	0x3e170b3e	0.14750382
229	0x3e56a487	0.209612
230	0xbe84982f	-0.25897357
231	0x3ee0d09e	0.43909162
232	0xbe38f1b8	-0.18060958
233	0xbeac9a10	-0.3371129
234	0xbdd4fd45	-0.1039987
235	0x3dbeeff9	0.09323115
236	0xbc587318	-0.013211034
237	0x3d1614a7	0.03664079
238	0x3b7d4ca6	0.0038650422
239	0xbe4eac49	-0.20182909
240	0x3f0a65c4	0.5406153
241	0xbd0b305f	-0.033981677
242	0xbe9e303a	-0.3089617
243	0xbedb7fea	-0.42871028
244	0x3d001ee2	0.031279452
245	0x3c19c4a9	0.009385266
246	0x3e906108	0.2819903
247	0x3f1be92c	0.6090267
248	0xbd1488ed	-0.036263395
249	0xbe9b7eff	-0.30370328
250	0x3f318954	0.6935017
251	0x3e150e76	0.14556298
252	0x3d903ac4	0.07042459
253	0xbe9bf7a5	-0.30462375
254	0xbe8366db	-0.2566441
255	0x3f3a64ff	0.7281036

tfl.pseudo_qconst i1 [30, 60] scale=0.0056329276 zero_point=0
0	0xd8	-0.2253171
1	0x16	0.123924404
2	0xd7	-0.23095003
3	0xce	-0.28164637
4	0x06	0.033797566
5	0xfd	-0.016898783
6	0x39	0.32107687
7	0xd6	-0.23658296
8	0xff	-0.0056329276
9	0x19	0.14082319
10	0xd5	-0.24221589
11	0x27	0.21968418
12	0x03	0.016898783
13	0xd5	-0.24221589
14	0xfa	-0.033797566
15	0x15	0.11829148
16	0xe8	-0.13519026
17	0xe0	-0.18025368
18	0xee	-0.1013927
19	0xd5	-0.24221589
20	0x0f	0.08449391
21	0x0d	0.07322806
22	0xdb	-0.20841832
23	0x0d	0.07322806
24	0x2d	0.25348175
25	0x22	0.19151954
26	0x00	0.0
27	0xc4	-0.33797565
28	0xe2	-0.16898783
29	0x18	0.13519026
30	0x04	0.02253171
31	0xed	-0.10702562
32	0xed	-0.10702562
33	0x1f	0.17462076
34	0x19	0.14082319
35	0x13	0.10702562
36	0x0a	0.056329276
37	0x2e	0.25911468
38	0xe0	-0.18025368
39	0x44	0.3830391
40	0x05	0.028164638
41	0x04	0.02253171
42	0xe3	-0.1633549
43	0x0b	0.061962202
44	0x0b	0.061962202
45	0xd6	-0.23658296
46	0x15	0.11829148
47	0xe6	-0.14645612
48	0xe7	-0.14082319
49	0x10	0.09012684
50	0x01	0.0056329276
51	0xe3	-0.1633549
52	0x11	0.09575977
53	0x03	0.016898783
54	0x6b	0.60272324
55	0x2b	0.24221589
56	0x18	0.13519026
57	0x35	0.29854515
58	0xfe	-0.011265855
59	0x1b	0.15208904
60	0x07	0.03943049
61	0x2f	0.2647476
62	0x23	0.19715247
63	0xec	-0.11265855
64	0x13	0.10702562
65	0xf3	-0.07322806
66	0xf1	-0.08449391
67	0x1c	0.15772197
68	0xe6	-0.14645612
69	0xdd	-0.19715247
70	0x04	0.02253171
71	0xfb	-0.028164638
72	0xe9	-0.12955734
73	0x31	0.27601346
74	0x09	0.05069635
75	0x1d	0.1633549
76	0x0e	0.07886098
77	0xef	-0.09575977
78	0x2b	0.24221589
79	0x05	0.028164638
80	0xf1	-0.08449391
81	0x37	0.30981103
82	0x1f	0.17462076
83	0x21	0.1858866
84	0x0d	0.07322806
85	0xdc	-0.2027854
86	0x1c	0.15772197
87	0x0e	0.07886098
88	0x2d	0.25348175
89	0x0a	0.056329276
90	0xe3	-0.1633549
91	0x31	0.27601346
92	0x28	0.2253171
93	0xf0	-0.09012684
94	0xdd	-0.19715247
95	0xf1	-0.08449391
96	0x09	0.05069635
97	0xee	-0.1013927
98	0xe9	-0.12955734
99	0xe4	-0.15772197
100	0xf9	-0.03943049
101	0x1f	0.17462076
102	0xf3	-0.07322806
103	0xd6	-0.23658296
104	0xef	-0.09575977
105	0x1c	0.15772197
106	0x02	0.011265855
107	0x28	0.2253171
108	0x21	0.1858866
109	0xfc	-0.02253171
110	0x05	0.028164638
111	0xf0	-0.09012684
112	0xe0	-0.18025368
113	0x25	0.20841832
114	0xf0	-0.09012684
115	0xd7	-0.23095003
116	0xc9	-0.30981103
117	0xd3	-0.25348175
118	0xe9	-0.12955734
119	0x26	0.21405125
120	0xf6	-0.056329276
121	0xfd	-0.016898783
122	0xfd	-0.016898783
123	0x7f	0.7153818
124	0xd9	-0.21968418
125	0x10	0.09012684
126	0x0c	0.06759513
127	0x18	0.13519026
128	0x2c	0.24784881
129	0xf0	-0.09012684
130	0x02	0.011265855
131	0xea	-0.123924404
132	0xf2	-0.07886098
133	0x5e	0.5294952
134	0x1f	0.17462076
135	0xe8	-0.13519026
136	0xf3	-0.07322806
137	0x19	0.14082319
138	0xe2	-0.16898783
139	0x05	0.028164638
140	0x0f	0.08449391
141	0x28	0.2253171
142	0xf9	-0.03943049
143	0xe8	-0.13519026
144	0x27	0.21968418
145	0xda	-0.21405125
146	0x22	0.19151954
147	0x2a	0.23658296
148	0xf6	-0.056329276
149	0xf9	-0.03943049
150	0x1b	0.15208904
151	0x66	0.5745586
152	0xdc	-0.2027854
153	0x0d	0.07322806
154	0xd3	-0.25348175
155	0xd4	-0.24784881
156	0x08	0.04506342
157	0xfb	-0.028164638
158	0x29	0.23095003
159	0xd8	-0.2253171
160	0xe7	-0.14082319
161	0x28	0.2253171
162	0x54	0.47316593
163	0x01	0.0056329276
164	0x16	0.123924404
165	0x22	0.19151954
166	0xda	-0.21405125
167	0xfd	-0.016898783
168	0x1a	0.14645612
169	0x1f	0.17462076
170	0x5a	0.5069635
171	0x41	0.3661403
172	0x01	0.0056329276
173	0x29	0.23095003
174	0xd7	-0.23095003
175	0xf9	-0.03943049
176	0x12	0.1013927
177	0xe9	-0.12955734
178	0x25	0.20841832
179	0xd5	-0.24221589
180	0x1e	0.16898783
181	0x09	0.05069635
182	0x2f	0.2647476
183	0x50	0.4506342
184	0xf3	-0.07322806
185	0xd8	-0.2253171
186	0xeb	-0.11829148
187	0x37	0.30981103
188	0x2c	0.24784881
189	0x24	0.2027854
190	0xd5	-0.24221589
191	0xd0	-0.27038053
192	0x17	0.12955734
193	0x46	0.39430493
194	0xed	-0.10702562
195	0xda	-0.21405125
196	0xf3	-0.07322806
197	0xf0	-0.09012684
198	0xfe	-0.011265855
199	0x12	0.1013927
200	0xe5	-0.15208904
201	0x24	0.2027854
202	0xda	-0.21405125
203	0x04	0.02253171
204	0x13	0.10702562
205	0x05	0.028164638
206	0x29	0.23095003
207	0x2a	0.23658296
208	0x00	0.0
209	0xc9	-0.30981103
210	0x17	0.12955734
211	0x2b	0.24221589
212	0xe3	-0.1633549
213	0x1a	0.14645612
214	0xde	-0.19151954
215	0xf1	-0.08449391
216	0xee	-0.1013927
217	0xde	-0.19151954
218	0x22	0.19151954
219	0xc6	-0.3267098
220	0xc9	-0.30981103
221	0xda	-0.21405125
222	0x53	0.467533
223	0xdd	-0.19715247
224	0xec	-0.11265855
225	0x00	0.0
226	0xf9	-0.03943049
227	0x2b	0.24221589
228	0xde	-0.19151954
229	0x29	0.23095003
230	0x33	0.2872793
231	0x45	0.388672
232	0xf5	-0.061962202
233	0xe5	-0.15208904
234	0xc4	-0.33797565
235	0x0b	0.061962202
236	0xeb	-0.11829148
237	0xeb	-0.11829148
238	0x21	0.1858866
239	0xe1	-0.17462076
240	0x1e	0.16898783
241	0x2c	0.24784881
242	0x2e	0.25911468
243	0x1a	0.14645612
244	0x33	0.2872793
245	0x18	0.13519026
246	0x02	0.011265855
247	0x41	0.3661403
248	0xff	-0.0056329276
249	0x25	0.20841832
250	0xda	-0.21405125
251	0x26	0.21405125
252	0xf5	-0.061962202
253	0xec	-0.11265855
254	0xf5	-0.061962202
255	0xf6	-0.056329276

sequential_1_1/dense_4_1/MatMul i1 [60, 60] scale=0.0051527945 zero_point=0
0	0x1b	0.13912545
1	0xe9	-0.11851428
2	0x07	0.03606956
3	0xc4	-0.30916768
4	0xe3	-0.14943103
5	0x24	0.1855006
6	0xf6	-0.051527947
7	0xff	-0.0051527945
8	0xe6	-0.13397266
9	0xf3	-0.06698633
10	0xf9	-0.03606956
11	0xd0	-0.24733414
12	0xe2	-0.15458384
13	0xf2	-0.07213912
14	0x2f	0.24218135
15	0xd5	-0.22157016
16	0xc1	-0.32462606
17	0xcd	-0.26279253
18	0x0f	0.07729192
19	0x10	0.08244471
20	0x1a	0.13397266
21	0xea	-0.11336148
22	0x27	0.20095898
23	0x04	0.020611178
24	0xe6	-0.13397266
25	0x0f	0.07729192
26	0x0d	0.06698633
27	0x0a	0.051527947
28	0xe3	-0.14943103
29	0x02	0.010305589
30	0x14	0.103055894
31	0xfb	-0.025763974
32	0x12	0.0927503
33	0xe7	-0.12881987
34	0x15	0.108208686
35	0x19	0.12881987
36	0xe9	-0.11851428
37	0xe7	-0.12881987
38	0x21	0.17004222
39	0xf3	-0.06698633
40	0xdf	-0.17004222
41	0x18	0.12366707
42	0x24	0.1855006
43	0x19	0.12881987
44	0xdf	-0.17004222
45	0xeb	-0.108208686
46	0x01	0.0051527945
47	0xe9	-0.11851428
48	0x06	0.030916767
49	0x1c	0.14427824
50	0x20	0.16488943
51	0x08	0.041222356
52	0x2a	0.21641737
53	0x0a	0.051527947
54	0x17	0.11851428
55	0x0a	0.051527947
56	0xfb	-0.025763974
57	0x16	0.11336148
58	0xe9	-0.11851428
59	0x12	0.0927503
60	0x3d	0.31432047
61	0x1f	0.15973663
62	0xd7	-0.21126458
63	0x38	0.2885565
64	0xe6	-0.13397266
65	0xd3	-0.23187575
66	0xfc	-0.020611178
67	0xf5	-0.05668074
68	0x14	0.103055894
69	0x16	0.11336148
70	0x0b	0.05668074
71	0x2a	0.21641737
72	0x04	0.020611178
73	0xea	-0.11336148
74	0xf4	-0.061833534
75	0x0f	0.07729192
76	0x0f	0.07729192
77	0x1d	0.14943103
78	0xef	-0.087597504
79	0xd8	-0.20611179
80	0x15	0.108208686
81	0x1b	0.13912545
82	0xe6	-0.13397266
83	0x09	0.04637515
84	0x00	0.0
85	0xe8	-0.12366707
86	0x0b	0.05668074
87	0x0f	0.07729192
88	0xfc	-0.020611178
89	0x13	0.097903095
90	0xfb	-0.025763974
91	0x0a	0.051527947
92	0xfb	-0.025763974
93	0x0c	0.061833534
94	0x1e	0.15458384
95	0xe9	-0.11851428
96	0x06	0.030916767
97	0xef	-0.087597504
98	0xf1	-0.07729192
99	0xf6	-0.051527947
100	0x22	0.17519501
101	0xce	-0.25763974
102	0x28	0.20611179
103	0xe0	-0.16488943
104	0x26	0.19580619
105	0x29	0.21126458
106	0xe7	-0.12881987
107	0xeb	-0.108208686
108	0x1a	0.13397266
109	0xd3	-0.23187575
110	0xfc	-0.020611178
111	0xf8	-0.041222356
112	0x31	0.25248694
113	0x16	0.11336148
114	0xe6	-0.13397266
115	0x27	0.20095898
116	0x1b	0.13912545
117	0x3a	0.29886207
118	0x2d	0.23187575
119	0x4b	0.3864596
120	0xfa	-0.030916767
121	0x0f	0.07729192
122	0xe4	-0.14427824
123	0xcf	-0.25248694
124	0x04	0.020611178
125	0x21	0.17004222
126	0x11	0.087597504
127	0x3d	0.31432047
128	0xbb	-0.3555428
129	0xc7	-0.29370928
130	0xe1	-0.15973663
131	0xbb	-0.3555428
132	0xec	-0.103055894
133	0x02	0.010305589
134	0x06	0.030916767
135	0xe0	-0.16488943
136	0xd8	-0.20611179
137	0xf5	-0.05668074
138	0xec	-0.103055894
139	0x07	0.03606956
140	0x07	0.03606956
141	0xf2	-0.07213912
142	0x19	0.12881987
143	0x11	0.087597504
144	0x05	0.025763974
145	0xec	-0.103055894
146	0x17	0.11851428
147	0xec	-0.103055894
148	0xf0	-0.08244471
149	0x15	0.108208686
150	0x33	0.26279253
151	0xf5	-0.05668074
152	0x24	0.1855006
153	0x06	0.030916767
154	0xfc	-0.020611178
155	0x11	0.087597504
156	0xfe	-0.010305589
157	0x1e	0.15458384
158	0xe1	-0.15973663
159	0x14	0.103055894
160	0xdc	-0.1855006
161	0x06	0.030916767
162	0xe3	-0.14943103
163	0x07	0.03606956
164	0x06	0.030916767
165	0xdc	-0.1855006
166	0x09	0.04637515
167	0xd6	-0.21641737
168	0xb5	-0.3864596
169	0x52	0.42252916
170	0x0c	0.061833534
171	0xf0	-0.08244471
172	0xf2	-0.07213912
173	0x31	0.25248694
174	0x1b	0.13912545
175	0xfa	-0.030916767
176	0xe8	-0.12366707
177	0x41	0.33493164
178	0xea	-0.11336148
179	0x15	0.108208686
180	0x05	0.025763974
181	0xf3	-0.06698633
182	0xf1	-0.07729192
183	0x00	0.0
184	0xe8	-0.12366707
185	0x05	0.025763974
186	0x02	0.010305589
187	0xec	-0.103055894
188	0xaa	-0.44314033
189	0xb3	-0.39676517
190	0xc3	-0.31432047
191	0xd3	-0.23187575
192	0x09	0.04637515
193	0x05	0.025763974
194	0xfb	-0.025763974
195	0x1d	0.14943103
196	0xc5	-0.3040149
197	0x18	0.12366707
198	0xe8	-0.12366707
199	0x31	0.25248694
200	0x17	0.11851428
201	0xdc	-0.1855006
202	0xd4	-0.22672296
203	0xfb	-0.025763974
204	0x09	0.04637515
205	0x33	0.26279253
206	0xee	-0.0927503
207	0x33	0.26279253
208	0xdf	-0.17004222
209	0x0f	0.07729192
210	0x14	0.103055894
211	0x2e	0.23702855
212	0x05	0.025763974
213	0xde	-0.17519501
214	0x1b	0.13912545
215	0x2c	0.22672296
216	0xed	-0.097903095
217	0xd6	-0.21641737
218	0xd3	-0.23187575
219	0xeb	-0.108208686
220	0x04	0.020611178
221	0xf0	-0.08244471
222	0x09	0.04637515
223	0x22	0.17519501
224	0xd4	-0.22672296
225	0xea	-0.11336148
226	0xc2	-0.31947327
227	0xc2	-0.31947327
228	0xe0	-0.16488943
229	0x55	0.43798754
230	0xd6	-0.21641737
231	0xa8	-0.4534459
232	0x0e	0.07213912
233	0x06	0.030916767
234	0x09	0.04637515
235	0x0f	0.07729192
236	0x36	0.2782509
237	0x08	0.041222356
238	0xdb	-0.1906534
239	0xfc	-0.020611178
240	0x20	0.16488943
241	0x36	0.2782509
242	0xff	-0.0051527945
243	0x27	0.20095898
244	0x13	0.097903095
245	0xf5	-0.05668074
246	0xd4	-0.22672296
247	0xb2	-0.40191796
248	0x10	0.08244471
249	0xdf	-0.17004222
250	0x3a	0.29886207
251	0x31	0.25248694
252	0xe6	-0.13397266
253	0xf9	-0.03606956
254	0xf2	-0.07213912
255	0xfe	-0.010305589
